…
sk. For a CNN, it’s generally the part after the adaptive average pooling layer. The “body” is everything else, and includes the “stem” (which we learned about in &lt;&gt;).\n\nIf we take all of the layers prior to the cut point of -2, we get the part of the model that fastai will keep for transfer learning. Now, we put on our new head. This is created using the function create_head:\n\n\nShow code\n#hide_output\ncreate_head(20,2)\n\n\nSequential(\n  (0): AdaptiveConcatPool2d(\n    (ap): AdaptiveAvgPool2d(output_size=1)\n    (mp): AdaptiveMaxPool2d(output_size=1)\n  )\n  (1): full: False\n  (2): BatchNorm1d(20, eps=1e-05, momentum=0.1, affine=True, track_running_stats=True)\n  (3): Dropout(p=0.25, inplace=False)\n  (4): Linear(in_features=20, out_features=512, bias=False)\n  (5): ReLU(inplace=True)\n  (6): BatchNorm1d(512, eps=1e-05, momentum=0.1, affine=True, track_running_stats=True)\n  (7): Dropout(p=0.5, inplace=False)\n  (8): Linear(in_features=512, out_features=2, bias=False)\n)\n\n\nSequential(\n  (0): AdaptiveConcatPool2d(\n    (ap): AdaptiveAvgPool2d(output_size=1)\n    (mp): AdaptiveMaxPool2d(output_size=1)\n  )\n  (1): Flatten()\n  (2): BatchNorm1d(20, eps=1e-05, momentum=0.1, affine=True)\n  (3): Dropout(p=0.25, inplace=False)\n  (4): Linear(in_features=20, out_features=512, bias=False)\n  (5): ReLU(inplace=True)\n  (6): BatchNorm1d(512, eps=1e-05, momentum=0.1, affine=True)\n  (7): Dropout(p=0.5, inplace=False)\n  (8): Linear(in_features=512, out_features=2, bias=False)\n)\nWith this function you can choose how many additional linear layers are added to the end, how much dropout to use after each one, and what kind of pooling to use. By default, fastai will apply both average pooling, and max pooling, and will concatenate the two together (this is the AdaptiveConcatPool2d layer). This is not a particularly common appro
…
e it’s substantially better. It differs a little bit from our previous implementation, in that instead of just starting with ResNet blocks, it begins with a few convolutional layers followed by a max pooling layer. This is what the first layers, called the stem of the network, look like:\n\n\nShow code\ndef _resnet_stem(*sizes):\n    return [\n        ConvLayer(sizes[i], sizes[i+1], 3, stride = 2 if i==0 else 1)\n            for i in range(len(sizes)-1)\n    ] + [nn.MaxPool2d(kernel_size=3, stride=2, padding=1)]\n\n\n\n\nShow code\n#hide_output\n_resnet_stem(3,32,32,64)\n\n\n[ConvLayer(\n   (0): Conv2d(3, 32, kernel_size=(3, 3), stride=(2, 2), padding=(1, 1), bias=False)\n   (1): BatchNorm2d(32, eps=1e-05, momentum=0.1, affine=True, track_running_stats=True)\n   (2): ReLU()\n ), ConvLayer(\n   (0): Conv2d(32, 32, kernel_size=(3, 3), stride=(1, 1), padding=(1, 1), bias=False)\n   (1): BatchNorm2d(32, eps=1e-05, momentum=0.1, affine=True, track_running_stats=True)\n   (2): ReLU()\n ), ConvLayer(\n   (0): Conv2d(32, 64, kernel_size=(3, 3), stride=(1, 1), padding=(1, 1), bias=False)\n   (1): BatchNorm2d(64, eps=1e-05, momentum=0.1, affine=True, track_running_stats=True)\n   (2): ReLU()\n ), MaxPool2d(kernel_size=3, stride=2, padding=1, dilation=1, ceil_mode=False)]\n\n\n[ConvLayer(\n   (0): Conv2d(3, 32, kernel_size=(3, 3), stride=(2, 2), padding=(1, 1))\n   (1): BatchNorm2d(32, eps=1e-05, momentum=0.1)\n   (2): ReLU()\n ), ConvLayer(\n   (0): Conv2d(32, 32, kernel_size=(3, 3), stride=(1, 1), padding=(1, 1))\n   (1): BatchNorm2d(32, eps=1e-05, momentum=0.1)\n   (2): ReLU()\n ), ConvLayer(\n   (0): Conv2d(32, 64, kernel_size=(3, 3), stride=(1, 1), padding=(1, 1))\n   (1): BatchNorm2d(64, eps=1e-05, momentum=0.1)\n   (2): ReLU()\n ), MaxPool2d(kernel_size=3, stride=2, padding=1, ceil_mode=False)]\n\njargon: Stem: The first few layers of a CNN. Generally, the stem has a different structure than the main body of the CNN.\n\nThe reason that we have a stem of plain convolutional layers, instead of ResNet blocks, is based on a very important insight about all deep convolutional neur
…
